crypto_advanced.pt (torch, 70529 bytes, 19 tensors)

gin.nn.0.weight f4 [64, 8]
00000000: edb0 22bd 4e7d 40be fa4b 163e 95fc 923e
00000010: 34bb 71be 268d fabd 17ee 0a3e 6898 c3bd
00000020: 90fc 7cbe 86c8 95be 4c5a ccbd a813 a2bd
00000030: 4bde a8be 54f8 efbd 59c5 a33e 48ab 8dbe
00000040: 3f5f 57be f2df ccbe ab9c a53c 734a afbd
00000050: 157f 8e3d dee3 093e 2830 83be 1f87 c4bd
00000060: 338a 17be 9aa9 afbe 69d8 a8bc 9707 963e
00000070: ee4b 6c3e c59d a4be e10b 21bd a245 203e
00000080: d882 63be 318c 833e dd92 92be e580 873e
00000090: 4f3f a4be 3764 fb3d cf45 813e 92c9 a5be
000000a0: b477 123e 086a 7cbe 5eea 193d 144b 2bbe
000000b0: ea9a 833e 0e0d 0b3e 8385 3a3e 8b98 a3bd
000000c0: a69e 563c c647 c73d 152e 17be 8d53 843d
000000d0: c91a 783e 74f9 46be d01a 6c3e 89f5 2a3b
000000e0: dd2d 993e 441b 0dbe d1d1 173e 18a6 6ebe
000000f0: c0b1 27be 04cd 4abe 9e6c 05be a24f 263e
00000100: 3098 9ebe 8146 913e d37f 353d a4e5 04bd
00000110: 2994 893e 1c17 353e 6ad2 12be 1272 84be
00000120: b9a4 92be b016 60be c096 d3bb 4117 31be
00000130: 8c95 49be cc48 a8bd dcba c8bd 3a71 753e
00000140: eb58 ab3e 3bac 403e ba6f 313e 7f80 1e3d
00000150: 7607 a8bd 1e4d cb3d db77 3bbe b08d 36bd
00000160: 74d9 4bbe 68d7 83be c44c 1bbd 8f41 ba3e
00000170: 2880 433d 2966 edbd dab3 65bd 41dd 033e
00000180: 9f5b a83e ac10 a73d 5e6f 1f3e 7595 4cbe
00000190: 75cc 2dbe 010d 3e3d f2e6 e83d 5d8a 783e
000001a0: 538d 543e bc50 1f3c 50a8 963e 925d fc3d
000001b0: 9878 9fbc 1581 adbe d42c 4e3d 83ce b7bd
000001c0: 669d 0bbe 5a06 e53c 3080 e43d 5682 7abd
000001d0: 362d 433e 542e b6ba 2be8 273e bd25 653e
000001e0: a9eb 623e b838 f73d 9af8 57be 1ab3 a3be
000001f0: 3b35 f6bc 3010 4ebe f1f7 46be 06bf 76be
00000200: bdd9 fc3d b93b 393d 4170 313e 3af9 38be
00000210: ee73 92be 9e66 c0bd f1f8 4b3e dbbe 433d
00000220: 00f3 053b e8ee 01bd feae afbe f9f4 32be
00000230: 4c08 9abd a124 1bbe 99d4 78be 4c71 84be
00000240: a072 abbe fc59 0c3e b689 6bbe d205 b4be
00000250: a8c5 3b3d 6716 93be f117 5bbe 5431 c4bd
00000260: 5d35 223d 0d7e 973e 5be4 183e e00d 8ebe
00000270: ab28 8c3b 2d36 95be f5c4 a33d 4fa8 9dbe
00000280: a160 01be 5a6c dcbd 3656 a53e 568c 663e
00000290: 4ff5 433e 304d 46bd b8bc f6bd cb74 45be
000002a0: 34e2 b13d 8368 adbd e10f 8ebe 4c57 04be
000002b0: e716 32be d260 b63e f543 aabc 9c97 923e
000002c0: 679f 9a3e 40a0 a63e c317 953e b677 9e3c
000002d0: 3365 fdbd 30ad c13c aba1 11be 7950 44be
000002e0: 7908 743c 65ba 423e dfb4 a83e 2810 a03e
000002f0: db9e 993e 1fc6 30be 0ef3 58be 9c9d 9cbe
00000300: 740f d2bc 7d90 22bd f381 59be 1f6e 373d
00000310: 1c65 593e 580e 4e3d 85a7 483e 24ec 5a3e
00000320: 87ae 363e 3413 913e 1f8b 013d 52f7 253e
00000330: 6b92 76be c84d 9c3e f9a0 443e 4087 9e3d
00000340: 78c4 13be 3dff 4f3e 191d 813e 6c67 0b3e
00000350: 731a 3a3e 66f8 223d 7b10 093e 8ef9 38be
00000360: a335 a8be 52d6 2ebe 2891 89be 68c4 23bd
00000370: 334a b53e 16fe 9cbe 69d2 10be 3798 953d
00000380: e0d2 9a3e 1be8 2dbe 01f0 413e 2aea 58be
00000390: d3a7 17be bcd5 62bb fc2d 623d 3796 53be
000003a0: e3cb 9fbd 86e7 8a3d 58ad 6cbd 9635 51bd
000003b0: dd25 87bd 0de5 6cbe b0a2 4abe 6890 a33e
000003c0: 848e aabe 3c99 ab3e e5ba 33be a2f5 093e
000003d0: a47a adbd 7af1 ecbd 251e 033e 4c31 abbd
000003e0: fa21 20be 4f71 883e 6177 f3bd 2212 fabb
000003f0: 2419 813d 1345 e8bd aa10 9ebc 157b 903e
-0.03971951 -0.187978 0.1467742 0.2870833 -0.23606569 -0.12233953 0.13567387 -0.095505536
-0.2470572 -0.2925455 -0.0997816 -0.079139054 -0.32982096 -0.11717287 0.31986502 -0.2766974
-0.21032427 -0.40014607 0.020216307 -0.08559122 0.06957833 0.1346583 -0.25622678 -0.09596085
-0.14798813 -0.34309083 -0.020611005 0.29302666 0.2307584 -0.3215162 -0.03931797 0.15651563
-0.22217882 0.25692895 -0.28627673 0.26465526 -0.3207955 0.12274974 0.25248572 -0.32380348
0.14303476 -0.24649823 0.037577026 -0.16727859 0.25704128 0.13579199 0.18214993 -0.0798808
0.013099348 0.097304866 -0.14763673 0.064612485 0.24228968 -0.19431096 0.23057103 0.0026086292
0.29917803 -0.13779932 0.14826132 -0.23305547 -0.163764 -0.1980477 -0.13029715 0.16241315
-0.30975485 0.28374103 0.044311356 -0.032445565 0.2687085 0.17684597 -0.14338079 -0.2586828
-0.28641298 -0.21883655 -0.00645718 -0.17294027 -0.19685954 -0.0821701 -0.098012656 0.23968974
0.33466277 0.188157 0.17327777 0.038696762 -0.08204548 0.09926818 -0.1830744 -0.044568717
-0.1990717 -0.2575028 -0.037915006 0.36378142 0.04772964 -0.11591751 -0.056079723 0.1287737
0.328824 0.08157477 0.15569827 -0.19978888 -0.16972525 0.04639912 0.11372174 0.24271531
0.20757036 0.009723838 0.29425287 0.123225346 -0.019466683 -0.33887544 0.05033572 -0.08974936
-0.13634261 0.02795713 0.11157262 -0.061159454 0.19060215 -0.0013899305 0.16397159 0.22377677
0.2216021 0.12071365 -0.21090928 -0.3197258 -0.03005468 -0.20123363 -0.1943052 -0.24096307
0.12346218 0.04522297 0.17327978 -0.18063822 -0.28604072 -0.09394573 0.19919182 0.047789436
0.0020439029 -0.03172198 -0.34313196 -0.17476262 -0.07521114 -0.15150692 -0.2429985 -0.2586769
-0.3348589 0.13706201 -0.23001751 -0.3516069 0.045842797 -0.2872803 -0.21395852 -0.09579721
0.039601672 0.29588357 0.1493086 -0.2774496 0.004277309 -0.29142895 0.07996551 -0.30792472
-0.12634517 -0.10762854 0.32292336 0.22514471 0.19136547 -0.048413455 -0.12047714 -0.19282834
0.08685723 -0.084672 -0.2774649 -0.12923926 -0.17391549 0.35620743 -0.020784358 0.28631294
0.3019974 0.32544136 0.2911969 0.019344192 -0.12372818 0.023642153 -0.14221828 -0.19171323
0.014894598 0.19016416 0.32950494 0.31262326 0.3000401 -0.17263077 -0.21186468 -0.30588996
-0.025642134 -0.039688576 -0.21240978 0.044782754 0.21229976 0.050306648 0.19595154 0.21379143
0.17840014 0.28334963 0.031626817 0.16207626 -0.24079292 0.30528092 0.19202031 0.07740641
-0.14430416 0.2031221 0.25217512 0.13613671 0.18174152 0.039787672 0.13385193 -0.18063948
-0.32853422 -0.17073944 -0.26868558 -0.03998223 0.35408172 -0.30662602 -0.14142765 0.07304423
0.3023901 -0.16983072 0.1893921 -0.21183077 -0.14810114 -0.003461226 0.055219635 -0.20662771
-0.0780256 0.06782441 -0.0577825 -0.051076494 -0.06599019 -0.23134251 -0.19788623 0.3194611
-0.33311856 0.33515346 -0.17551763 0.13472608 -0.084706575 -0.115694955 0.12804468 -0.08359012
-0.15637961 0.26648948 -0.11888004 -0.007631556 0.06303623 -0.113413 -0.019295055 0.28218904

gin.nn.0.bias f4 [64]
00000000: d1c2 6abd b8ef 70bd 24ea 6d3e 3fdc 563e
00000010: 1459 7c3e 5875 7abe 049e b43d 4131 6a3e
00000020: a272 9bbe 770d 40be 4f57 2ebe 7903 c23d
00000030: 5334 b83d e17d 673e 4364 a33e df60 a73d
00000040: dc63 fa3c bcde f13d 00d0 d63d 0d59 0a3d
00000050: 4519 b53e 69e6 163e 0afc e23d 57d2 00be
00000060: e59f 51be 5a94 69be 29a9 95bd 3de2 893e
00000070: e506 48be 9686 073e 4be3 a53d 09d3 623e
00000080: 4ce0 833e c408 133e 3b26 9fbb 78fb 99bd
00000090: 42c9 133e 8e7c 0ebe 8520 86be 730e 8ebe
000000a0: e6b7 fabd 4d69 cabc b77f 97be 414c 9abe
000000b0: 6e0e 17bd e407 07be e046 f7bd db96 30be
000000c0: 0eb2 a2bb 9a1e 5dbe 5a59 8ebe 9c69 35be
000000d0: 56d4 b83b fedc 1bbd 11a9 b1bd 9bec a83d
000000e0: 1e2f 8e3e bad5 403e 8f96 07be a32d 663d
000000f0: 4491 d7bd 9418 4ebd 4c4d 01be 9531 503e
-0.057314698 -0.058822364 0.23233849 0.20982455 0.24643356 -0.24458826 0.088192016 0.22870351
-0.30360895 -0.18755136 -0.17025493 0.094733186 0.08994355 0.22606613 0.3191243 0.081727736
0.030565195 0.11810061 0.104888916 0.03377633 0.35370842 0.14736332 0.11083229 -0.12580238
-0.20471151 -0.22810498 -0.07307655 0.2693042 -0.1953388 0.13234934 0.08099993 0.22150816
0.25757062 0.14358813 -0.0048568523 -0.07518667 0.14432243 -0.13914701 -0.26196685 -0.277454
-0.12242107 -0.024708414 -0.29589626 -0.30136302 -0.036878996 -0.13186604 -0.12074065 -0.17245047
-0.0049650734 -0.21593705 -0.27802545 -0.17716068 0.005640547 -0.03805255 -0.08674825 0.08248254
0.27770323 0.1883153 -0.13241027 0.056195866 -0.10525754 -0.05031641 -0.12627143 0.20331414

gin.nn.2.weight f4 [64, 64]
00000000: cb70 493d 80e9 7abc 8467 143e b92c 153d
00000010: cd22 9c3d a3df 5ebd be02 d73c 044d c13d
00000020: 9b1e c53d 1c70 0f3d fde2 42bc c098 b53d
00000030: 2eed dbbd 3d47 c13d 33fe cabd fa5f 21bd
00000040: d337 2e3d a099 f83c aa8d d3bd 3b97 f73d
00000050: 803f c73d 5223 ca3d 35e4 b43d c598 9f3c
00000060: 51a2 663c dc7c 4abd 71c3 28bd f945 a03b
00000070: 9d86 f7bd d1f7 1fbe 64d8 313d cf79 a83d
00000080: a1e8 53bd 2923 093d aa46 0dbd 21f1 c13d
00000090: b215 28bd a194 433d b44b 053e ad06 f63c
000000a0: ad65 823d 5a48 493c 2fd8 e73d d4d9 a1bd
000000b0: 1219 98bc 541d 183d d4ce e4bd 26fc d4bb
000000c0: a0f6 893d ff34 593d 6495 3cbd a1f2 24bd
000000d0: 70f2 a03d 703e d8bc 5881 253d 7f40 f03d
000000e0: 3b77 c23d 7d7e 14bd 52a4 2e3d 4a3b e1bb
000000f0: 5eac dabd 7db2 2a3e d9db 0a3d 1cc2 9e3d
00000100: f8b9 ccbc 0cf1 4ebd b9a9 033d 93f5 84bd
00000110: 6530 1ebd 1140 0dbd f5fe 973d d5a5 ac3d
00000120: e5be 393b bc3d 69bd 941b d4bd 092b 2abd
00000130: 3e27 f93d 1344 81bc 05f4 bc3d ec18 a03d
00000140: 70d6 3b3c 543b 313d 94ee c53d 4f60 2a3e
00000150: 2873 8c3d 320f e1bd 1c6f 84bd 4ae4 75bd
00000160: edf6 d93d ff9a a33d 56fd f2bc db2b 823d
00000170: cd8f 3ebc 93be c9bd 7886 af3d d26e a9bc
00000180: 4f1b 003d 9226 9dbd ef40 b33d cabd 003e
00000190: 18c1 383d 7cbd 00be 946e 673c af9f a3bd
000001a0: 2d8c c63d 6f1c 8c3d 76a4 d93d b67c 9ebd
000001b0: a21d 253c c6a8 8f3c a427 58bd bef5 003c
000001c0: f2c2 83bd bc2f 61bd 096d f93d b130 c83d
000001d0: da29 c5bc e428 2bbe 8467 84bd be90 1b3e
000001e0: 640f 1e3e 6d81 323d 1556 35bc 40d2 d93d
000001f0: 96c0 ecbd ec93 f33c 5fba cb3d 204b 51bb
00000200: 9d89 243d 90d7 653d 491b 893d 7029 0fbd
00000210: 4702 893d fba8 293e 5d2e 0cbd 9d3b c83c
00000220: ad4d 8bbd 6839 a8bc 12a1 b83c 2a9c 8f3d
00000230: 2696 e93d c102 6c3d 2464 afbd 5e04 e6bb
00000240: 5ceb 62bd b03d 773d 98f1 633d e42d 7e3d
00000250: a7d9 44bb b9e2 0bbe 08ca ca3d a819 12bd
00000260: 2dda 173d 6d35 b43d 7a7c bd3d 0adf 72bd
00000270: 805b cabb 5df7 9c3d 7de4 233d b66c ae3d
00000280: e4d3 953d 72e8 e03b 2e66 0b3e dbd9 96bc
00000290: 9e7a 50bd f3b6 dfbc 57a6 0bbe 0dff e0bd
000002a0: 2b2a 8a3d 1fbe acbd 8b8b 90bd 7091 a0bd
000002b0: 39fd f1bd 16d1 b7bd dcc9 a83d 9cfd 3abd
000002c0: 8c3f 1dbd 2489 b7bc f236 49bd 7e83 25be
000002d0: fa72 973d 9d6c 46bd 5e27 cb3d b2c6 2f3e
000002e0: a6df 833d e4f0 c23c 194e 8a3d 5a65 4abd
000002f0: 7808 cd3c 76e8 edbd f27f cabd c2ea 9abd
00000300: 5f3a 48bc 745e aabd f339 243e 7ae0 a2bd
00000310: f4c2 1abe 7a7b cd3c 53e2 8e3c 5be7 db3d
00000320: c828 4e3d 304c cb3d 1e1b a03d fd7c 87bd
00000330: 6bf3 183c 1fd1 f4bc c241 8bbd 3f35 1f3e
00000340: 924d ce3d 4680 8a3d 80a1 9abd 372b 8cbd
00000350: f8b6 98bd 9992 d33d 2a0b 393a 946a 563d
00000360: 237d 2a3d 5d27 d73d e969 c33b 3f6d dc3c
00000370: 470c c7bd 06b8 f53d 78d8 2bbd 397c c23b
00000380: 9ac6 08bc 2a40 253e d770 883d d21a 06be
00000390: e659 fc3d 6824 ce3d dd74 d43d fc5a 1bbd
000003a0: 9c74 10be 41f0 fd3c 2151 fb3d e088 7f3c
000003b0: 7303 fbbd 5566 1bbd c84e a6bd bd72 eabd
000003c0: b6b0 66bb 4908 313d b8f7 b4bd 3c12 493a
000003d0: b29f 43bd 00c6 06be bb53 a6bd 890f 18be
000003e0: 3ce2 27be eda0 b93c ce60 923d 4ce3 ba3d
000003f0: 22fc ba3d 2a01 0ebd 065d 94bd 2648 8f3d
0.049179833 -0.01531446 0.14492613 0.036419604 0.07623825 -0.054412495 0.026246425 0.09438518
0.09624978 0.035019025 -0.011894939 0.088670254 -0.10738598 0.09437416 -0.09911766 -0.03939817
0.042533707 0.030346692 -0.10329755 0.12089392 0.097289085 0.09870018 0.088325895 0.019482026
0.014076785 -0.04943548 -0.041202012 0.004891154 -0.12086222 -0.15621878 0.043419257 0.08226358
-0.051735524 0.033480797 -0.03449122 0.0946982 -0.041036315 0.047749165 0.1301716 0.03003248
0.06367049 0.012285316 0.113205306 -0.079028755 -0.018566642 0.037137344 -0.11172262 -0.006499785
0.06736493 0.053029057 -0.046040908 -0.04027045 0.07858741 -0.02639696 0.040406555 0.11731052
0.09495398 -0.03625344 0.042637177 -0.006873523 -0.10677408 0.1666965 0.03390107 0.07751867
-0.02499102 -0.05052285 0.032144282 -0.06492152 -0.03862037 -0.034484927 0.07421676 0.084300674
0.0028342542 -0.05694364 -0.103568226 -0.041544948 0.12165688 -0.01577953 0.092262305 0.078172535
0.0114647 0.04326947 0.09664646 0.16638301 0.06857902 -0.109892264 -0.06466505 -0.060032167
0.106428005 0.079885475 -0.029661816 0.06356021 -0.011630964 -0.09850802 0.0857057 -0.020682726
0.031276044 -0.07673372 0.087526195 0.12572399 0.045106024 -0.12572283 0.014125485 -0.079894416
0.09694705 0.06841361 0.106270716 -0.077386305 0.010077866 0.017536532 -0.05277218 0.0078710895
-0.06433667 -0.054977164 0.12179 0.09774912 -0.024067808 -0.16714817 -0.064650565 0.15191934
0.15435559 0.04358046 -0.011067887 0.10635805 -0.1156017 0.02973362 0.09947657 -0.0031935647
0.0401703 0.05611378 0.06694657 -0.034951627 0.066898875 0.16568367 -0.034223903 0.024442488
-0.06801925 -0.020535186 0.022537742 0.07012208 0.11405592 0.057619814 -0.08564022 -0.0070195636
-0.055400237 0.060361564 0.055650324 0.062055483 -0.0030036957 -0.13660707 0.09901816 -0.035669
0.037073303 0.08799253 0.09252258 -0.059294738 -0.0061754584 0.07664368 0.040012825 0.08516829
0.073158056 0.006863647 0.13613197 -0.018414428 -0.050898187 -0.027308917 -0.13637672 -0.10986147
0.06746324 -0.084347 -0.07057866 -0.0784024 -0.118158765 -0.08975427 0.082416266 -0.045652017
-0.03839068 -0.022404261 -0.049124666 -0.16163442 0.07394977 -0.048443425 0.09919618 0.1716564
0.06439142 0.023796506 0.06753177 -0.049413063 0.025028452 -0.11616604 -0.09887685 -0.07564308
-0.012220948 -0.08318797 0.16037731 -0.07952972 -0.15113431 0.025083292 0.017441904 0.10737487
0.05033186 0.09926641 0.07817672 -0.066156365 0.009335379 -0.029884873 -0.06799652 0.15547656
0.10073389 0.067627475 -0.07550335 -0.0684418 -0.074567735 0.10330696 0.00070588535 0.052347735
0.041623246 0.10505555 0.005963553 0.026907561 -0.097191386 0.1199799 -0.041954488 0.0059352187
-0.008348132 0.16137758 0.066621475 -0.13096169 0.12321834 0.10065538 0.103738524 -0.037928566
-0.14106983 0.030998351 0.122713335 0.015596598 -0.12256517 -0.03793939 -0.08120495 -0.11447666
-0.0035200543 0.043220792 -0.08836311 0.00076702586 -0.04775972 -0.13161469 -0.08121439 -0.14849676
-0.16394895 0.022659743 0.0714737 0.09125385 0.09130122 -0.03466908 -0.07244305 0.06996183

gin.nn.2.bias f4 [64]
00000000: 05fe 703d 21a0 5e3d 6ee2 c9bd 6f24 e83d
00000010: d881 12bc 9c9f e9bd ceae af3d 17c1 8f3d
00000020: 97d6 59bb 214e 313d 1413 383d 43f3 c73d
00000030: fa6d 8d3d bb8c 91bb f0d6 b23d ddcc 8ebd
00000040: bdb0 b03c d4b9 793c b894 c33d 1edb 83bd
00000050: 3c4d b3bb a49d 813d 61ec c23d c592 8dbd
00000060: 463d 02bd 477e 43bc c57e 1abd d3f8 813b
00000070: ee13 6bbd e28e 413d 3fb0 993a 7037 bbbd
00000080: 7dd2 1b3d 5a2e bc3d e815 e5bc 1d10 a1bd
00000090: 1a2c e8bd 62aa 9ebd d701 d13d 4e24 e8bd
000000a0: 9c75 34bd c8cb a23d 2572 c33b e113 5f3d
000000b0: 3cec 4b3d 3729 023e 2018 ebbd f479 b43d
000000c0: 56e4 f8bc 2028 97bd 612b 33bd a4e0 ee3d
000000d0: 7a5e dc3c 1326 9cbd 876c 333d 8af6 16bd
000000e0: c727 f53b 9d06 a83d b573 e23c fa4c a4bd
000000f0: a986 08bd a724 cdbc cd16 c3bc bc70 6ebd
0.058836002 0.05435193 -0.09857641 0.11335074 -0.00894209 -0.11407396 0.08578263 0.07019251
-0.0033239478 0.0432874 0.04494007 0.09763195 0.06905742 -0.004441825 0.08732402 -0.06972668
0.02156865 0.015242059 0.0954985 -0.06438278 -0.0054718535 0.06328896 0.09517742 -0.0691276
-0.031796716 -0.011931962 -0.037718553 0.0039664297 -0.057392053 0.047255404 0.0011725499 -0.09141433
0.038042534 0.09188528 -0.027964547 -0.078644015 -0.11336537 -0.07747342 0.10205429 -0.113350496
-0.044057474 0.079490244 0.005964535 0.054462317 0.049785838 0.12711035 -0.11479211 0.08812323
-0.030382317 -0.073807 -0.04374254 0.116639405 0.026900519 -0.076244496 0.04380467 -0.03685621
0.0074815485 0.082043864 0.027643064 -0.080224946 -0.033331547 -0.025041891 -0.023814583 -0.05821298

sage.lin_l.weight f4 [64, 64]
00000000: 9eba 4b3d b9ce 0ebe 41ee b339 5d01 acbd
00000010: a4f6 d6bd 1451 0abe 3dbb 183d efe7 513d
00000020: 777c 49bd 2693 e3bd d150 64bd e71a c83c
00000030: 9109 ef3d 072d 2fbd 4b08 a0bd 0897 c6bd
00000040: cf9d acbd a1a1 953d 3054 2c3d 4b10 823c
00000050: 8611 96bd 341b 043e 00be 113e 0b68 933d
00000060: 45fc b23c 1b35 b73c 0137 623d 5290 90bd
00000070: 1ee7 b93c 0b73 c83c e84d 8fbd 4fec fdbb
00000080: 4e40 70bd bf31 e63d 6b15 303d 4118 02bd
00000090: 8dde 7fbd 0217 f8bd 8e69 6d3d dbf1 b73d
000000a0: 86a9 cf3c fd9c f7bd a099 ba3a 5c95 333c
000000b0: bfaa 223d 150e 943d c9b0 16bc 2ccc 9cbd
000000c0: 3b4c f0bb 5f65 8abd 6278 fabd 898e 8d3d
000000d0: 3121 843d 911f be3d 5567 27bd 843c a03d
000000e0: 0583 e4bd 6dd9 0a3e 0005 72bd 6160 5e3c
000000f0: 4ef2 b3ba d3f3 a2bd 8bb6 1c3c 41c9 51bd
00000100: 0357 6a3d ec91 023e 8c03 773c 36a7 afbd
00000110: 8abc 19bd ed96 5ebc 4a07 a5bd 705a 9c3d
00000120: 18c5 0e3e 1587 533d 1218 ac3d 0114 00be
00000130: 97a9 1dbc 4127 243d f14e d4bd d210 5c3d
00000140: c54e 90bd 1239 40bd 5fb4 c3bd 057f 25bd
00000150: ecf2 fb3c 0918 afbd cd81 89bd 6bc8 383a
00000160: 6ab2 7fbd 47e5 2c3e 6b5e 5a3d ee56 78bd
00000170: cbe3 4d3d df4e 12bd e4b2 9dbd ccc5 b83d
00000180: 9ded a6bb 9cca d73d e560 a9bd d879 1abd
00000190: 9b2c e43d 1f5d 84bd 4f19 a8bc 5df6 14be
000001a0: 184a 963d aeb0 a9bd c04f 103c aa59 e03d
000001b0: 76c3 9dbd 4d5b 523d 42eb 113d 9e07 febb
000001c0: 6ea8 84bd c31c 41be 8858 afbd 6f7d b5bd
000001d0: 2804 41bd 7725 09bd ff53 a1bd 31ab c93d
000001e0: 2160 47bd 14bb 103d a1f7 bdbd 2210 8abc
000001f0: 8a0f a33d b4bf 0dbd abc0 213d e4fc 883d
00000200: 5aff 953d e47f 80bd b0c7 db3a c8f8 a73d
00000210: 405f ad3c dc0f b53c 4501 c8bc ad20 c83c
00000220: 68de 693d 0acf f6bc cd85 503d 5e7b 0f3d
00000230: 9eb4 a6bd c28b e13d 9ec8 e53d e969 a1bd
00000240: dcdd 0abd 1adc 01be 595f 5fbd ed44 a63d
00000250: 54e1 8a3d 249b 9c3d 0f26 563d f6ca c3bc
00000260: 101a f33c 7e9d d43d c5b0 1bbd 720c de3d
00000270: 404c 903d 1dc5 9a3d dd41 e53c ed82 59bd
00000280: e74b e93d 7c0c 6ebd c9bc e2bd f596 9cbd
00000290: 89ed c03d 7874 f7bc 9038 3abd 78ff d83c
000002a0: c168 3dbd f97f 4f3d 993f 5d3b 7f14 35be
000002b0: 5f51 9bbd 4558 81bd 32f2 923d 3428 d03d
000002c0: f93c 963d fe56 a63c 5955 83bd 96e9 5f3c
000002d0: adab 413d cf41 393c 543d 733d b595 9ebd
000002e0: ab2c 173d a784 24bd 834b 323d 8857 31bd
000002f0: 8d96 833d addd 0dbe 62e2 fdbd bc6c 07bd
00000300: 6a07 f1bd eea8 95bd 7b84 db3d 634b fc3b
00000310: 363a 1dbd e646 54bd 9a71 963c c450 eebd
00000320: eea2 76bd 59bb 39bd c6d4 88bb 6def 003e
00000330: e2be 23bd f5ec 21bd 06c0 03be 1329 6fbc
00000340: 5d2e 793c 6024 dd3d d869 f4bd d8f4 743d
00000350: ce73 043c eacd 663d 1b0d ee3c 3738 cd3d
00000360: 0935 95bd c59e 0b3d 4818 63bd cbc1 9bbd
00000370: 810c c53d e4a7 003e 1ba5 87bd 7c82 3e3d
00000380: c8c6 cd3d 4496 6b3d d170 c73d 4915 9dbd
00000390: 12d6 3bbd a188 b73d d81e 2e3d a96b f43a
000003a0: d96c a13d ab5d 52bd e4fe 98bd 29c6 543c
000003b0: 435d 513d f02c dc3d c289 b0bd b156 79bd
000003c0: 4597 653d 4478 0a3e 3039 54bd 8925 8ebd
000003d0: edeb de3d fbb7 db3c 2eca 013d 195f 2e3d
000003e0: 69f6 ffbc 6089 e0bd 9c56 443d e4b2 a6bd
000003f0: ef33 f9bb 4d9d 363d 6eff 04bd b3f3 c43d
0.04973852 -0.13946046 0.00034319054 -0.083986975 -0.10496262 -0.13507491 0.03728794 0.05124658
-0.049190965 -0.11112051 -0.055741135 0.02442689 0.116717465 -0.04276755 -0.07814082 -0.09696776
-0.08428537 0.07306219 0.042072475 0.01587691 -0.07327561 0.12901002 0.14232635 0.07197579
0.021848807 0.02236419 0.055228237 -0.07058777 0.022693213 0.02446892 -0.06997281 -0.0077491174
-0.058655076 0.11239957 0.042989176 -0.03176141 -0.0624681 -0.121137634 0.057961993 0.08981677
0.02534939 -0.1209049 0.0014236458 0.010960903 0.039713617 0.072292484 -0.009197422 -0.0765613
-0.007333306 -0.06757616 -0.122299924 0.06911952 0.06451643 0.092833646 -0.04087003 0.078240424
-0.111578025 0.13559504 -0.0590868 0.013572783 -0.0013728829 -0.07956662 0.009565006 -0.05121732
0.057211887 0.12750977 0.015076529 -0.08576815 -0.03753332 -0.013585788 -0.08058031 0.07634437
0.13942373 0.051642496 0.084030285 -0.12507631 -0.009622953 0.040076498 -0.103666194 0.05372698
-0.07046274 -0.046929426 -0.095558874 -0.04040434 0.030755483 -0.08549506 -0.06714211 0.00070489076
-0.06242601 0.16884337 0.0533127 -0.060629778 0.05026607 -0.03571975 -0.07700136 0.09022102
-0.0050942437 0.105366915 -0.08270434 -0.037713856 0.1114132 -0.06463074 -0.02051988 -0.14547105
0.07338351 -0.08285652 0.008808076 0.10954602 -0.07703297 0.051356602 0.03562475 -0.007752373
-0.06477438 -0.18858628 -0.08561808 -0.08861815 -0.047123104 -0.033482995 -0.07877349 0.09847105
-0.04867566 0.03533466 -0.09275747 -0.016853396 0.07961948 -0.03460665 0.039490383 0.0668886
0.07324095 -0.06274393 0.0016767886 0.08201748 0.021163583 0.022102289 -0.024414668 0.024429644
0.05709687 -0.03012802 0.050908852 0.03502976 -0.08139919 0.11012985 0.11219905 -0.07881529
-0.033902988 -0.12681618 -0.05453429 0.08118615 0.06781259 0.07646778 0.05228239 -0.02390049
0.029675514 0.10381602 -0.038010377 0.108422175 0.070457935 0.075571276 0.027985508 -0.053103376
0.1139143 -0.058117375 -0.11071164 -0.0764598 0.09420306 -0.030206904 -0.0454641 0.026489004
-0.04624248 0.050659154 0.003375983 -0.176836 -0.0758388 -0.06315664 0.07175101 0.10163918
0.07335848 0.020305153 -0.06412763 0.013666531 0.047282863 0.011307194 0.05938466 -0.07743398
0.036907833 -0.04016557 0.043529045 -0.043296367 0.064252 -0.13854094 -0.12396695 -0.03306268
-0.11768992 -0.073076114 0.10718628 0.0076994165 -0.038385592 -0.051825427 0.018364716 -0.116364986
-0.060213976 -0.045344684 -0.004175755 0.12591334 -0.039976962 -0.03953262 -0.1286622 -0.014597195
0.015208808 0.107979536 -0.119342506 0.059803814 0.008084251 0.05634872 0.029058984 0.10020488
-0.07285506 0.03408696 -0.05544308 -0.076053225 0.096215256 0.12564045 -0.06623288 0.04651116
0.1004768 0.05751635 0.09738315 -0.076700754 -0.04585845 0.08961607 0.042509884 0.0018647808
0.07882089 -0.05135886 -0.074704915 0.012986698 0.051114332 0.10750759 -0.08620025 -0.06087369
0.056052465 0.1352244 -0.05181235 -0.06940753 0.10884843 0.026821127 0.031686954 0.04257116
-0.031245427 -0.10963702 0.04793416 -0.081395894 -0.007605068 0.044583607 -0.03247016 0.096167944

sage.lin_l.bias f4 [64]
00000000: 6c5f 46bd 1dfb f73d 58c0 b33c ada7 12bd
00000010: b9ad c13c 0268 28bd a554 e63c 9211 e93d
00000020: 0018 d73d 4494 b83d 742b 17bd 35aa d7bd
00000030: ed33 3d3c ff35 8d3c 1864 3dbd b254 053d
00000040: 799a ed3b 016e 90bd c10f e13d 83aa 12bd
00000050: be55 c93d bd3a 743d b88b c4bc 750d 4dbd
00000060: c399 08bd 729a 893d 2e68 033d 68cf 8cbd
00000070: 3568 c9bc 81a6 da3d 002a 0ebd 5587 f63d
00000080: 357f 5d3d 5372 be3d 12a5 9c3d 2069 a33c
00000090: 5335 ccbc df42 743d 7a36 803c 1ff7 f0bd
000000a0: 4853 f73d 8fc9 bf3d 0081 a83d 7c01 07bd
000000b0: 95bc a0bd d604 1cbd eebd bdbd 6762 efbc
000000c0: 3291 a5bd e764 4dbd f503 5abd 28fb a6bd
000000d0: 026d b0bd 1fa2 d1ba fd5c 3cbd 74b3 f7bd
000000e0: 8e6a e63d c56e c6bd ea9c 9e3d 390f 85bd
000000f0: 7e96 48bd 7b4e 76bd 8855 8f3b d269 1a3d
-0.048430845 0.12108443 0.021942303 -0.03580444 0.023642408 -0.041114815 0.028116534 0.113803044
0.105026245 0.090126544 -0.036906675 -0.10530511 0.011548025 0.017237661 -0.046238035 0.032551475
0.0072510806 -0.070522316 0.10989333 -0.035807144 0.09830807 0.05962633 -0.023992404 -0.05006166
-0.033349764 0.06718911 0.032081775 -0.06875497 -0.024585823 0.10676289 -0.034708023 0.12037531
0.054076392 0.09299149 0.07648672 0.019947588 -0.02492777 0.059634086 0.015650976 -0.117658846
0.120764315 0.09364616 0.0822773 -0.0329604 -0.07848469 -0.03809055 -0.09264742 -0.029221727
-0.080843344 -0.050145056 -0.05322643 -0.08153373 -0.086145416 -0.001599375 -0.045987118 -0.12094775
0.112507924 -0.09689096 0.07744773 -0.06497044 -0.048971646 -0.06013344 0.00437421 0.037698574

sage.lin_r.weight f4 [64, 64]
00000000: 8c15 09be 21cc cc3d 46e2 aebc a11d ba3d
00000010: b542 12be 27e8 aebd c257 ac3d 98db 88ba
00000020: 4356 b53c bba8 72bd a14f f4bc 6895 bc3d
00000030: 1b6f 85bd 5692 f23c fa6d 003d ab6d b63d
00000040: e33c 38be d261 81bc 3717 2e3d b497 98bb
00000050: c388 1abd dca2 533d da4a 643d 402d 1dbc
00000060: f84d 89bd dbb1 a83d cf4c bc3d cf7b 0cbe
00000070: 36cc 85bd aa1a 55bc 98f5 f53d dc64 cf3b
00000080: 9f48 b23d aa4b 6f3d 77c9 69bd 0224 b73d
00000090: 9546 793d 1372 8fbd 200a ba3c 4216 ba3b
000000a0: 27fa a63d b9ea 67bd 0a91 7b3a dd5b c2bc
000000b0: 3deb 603d bc06 dc3d e5df 463d e145 5f3d
000000c0: f699 943d b8a0 973c efab 49bc 5ba1 efba
000000d0: 51bb 29bd f5aa 2cbd 81de c93d 46f1 78bd
000000e0: da18 18be 2f0c cc3d faf2 bc3d be33 8bbd
000000f0: 39e0 07be 4394 15bd 7f00 e7bd 8955 4f3d
00000100: aa77 8fbc 2c73 ec3d 79f0 db3d 1eae b2bd
00000110: 7672 e03c 2e3a 4cbd 439b ee3b 4b23 2bbd
00000120: 01f3 f33d 9e57 96bd 4aef 64bd ce3a 433d
00000130: 2a75 163d 1a45 f4bd fbd5 013d 364c bc3d
00000140: 23da 043d b5e8 923d e8e2 c13d f33d 01be
00000150: 7ba3 a0bb a263 84bc 737e 1bbd 7887 4bbe
00000160: 44a6 5b3d de09 5dbd 5686 963d d716 893d
00000170: b65f 8abd c619 a43d 424e c3bd 58a3 abbc
00000180: d6a9 d9bc d979 13bd bf52 b6bc 86da 75bc
00000190: 2b43 af3d f3fa c3bd 4979 9cbd f246 963b
000001a0: 657e dfbd 9006 52bd 81cd 33bd ec78 a73d
000001b0: 31ea a23d a0d2 903d 8cd1 e03d 860b a0bd
000001c0: 5bc6 bebd db85 053d 5b46 d3bd 5eb7 c73d
000001d0: 71cf cebd cc6c 823b c7cd 0d3d 3521 abbd
000001e0: 4ef8 be3d 7112 68bd 4595 a6bd a43a af3d
000001f0: 4f55 96bc 31e7 ce3d 2c42 ebbd 64f9 53bd
00000200: 7632 263c df82 80bd d009 04bd a5df a43d
00000210: 014b 00be a36a a33d 61ae ed3d 2673 003d
00000220: f236 f3bb eefe 023e ae9b 9b3d 50e1 2e3d
00000230: 18ae 06be 4230 a13c 672a fb3d e22b bfbd
00000240: b2d3 c6bd 0832 ccbd 9474 933d e0be 803d
00000250: 747e 14bd d563 d63c 8ac6 8bbd dcd0 773d
00000260: 1b28 c2bd 72ea 803c 4dcc c8bd 3906 6ebb
00000270: 21d2 893d eac0 123e 629b 8abd 2aee 93bd
00000280: eedd 073c 4cc3 863c 7b9a dc3d 406c 3b3c
00000290: 47e8 9ebd 0c27 aebd 0428 ae3d 74d0 e33d
000002a0: b375 c03c aef2 083e a4bc c73d b9fe a3bd
000002b0: 04ee 203d e09b e9bd 705b dabd 5b22 afbd
000002c0: 748a 203b f891 8c3c 2799 adbd 2764 cebd
000002d0: 7a8e 3b3d 2995 adbd 3eef e5bd 3049 623d
000002e0: 087e cf3d 649f 393d 2ab0 4bbd 21ae b33d
000002f0: 5c5a 9dbd 96b7 e5bb 46d6 93bb 7e42 253d
00000300: 52b2 6bbd c263 ddbc f90d c2bd f229 a13d
00000310: e804 143d 3346 233d dbf6 eebb 5082 93bb
00000320: a9e9 b63d 77c5 2a3d ec1e 19bd 6ade 59bc
00000330: 1057 cf3c f9b4 65bd 1c78 ba3d 0ea3 03bd
00000340: 86b1 8f3d 72d5 623d 797d 64bd cc6c cd3d
00000350: 2551 af3d 7847 973d 262c 083c 5810 b03d
00000360: 7bfe 253d cc51 083d 404f d8bd bff3 273c
00000370: 1205 d43c 2a41 ab3d 49ee 13bd fb56 b0bd
00000380: a702 ee3d 7fed 2c3d 2a76 5ebd a015 743d
00000390: d726 593d e66f e63c 7391 113d 6bdc 113e
000003a0: fbac 803d f9e8 b3bd b141 a0bd b456 d1bd
000003b0: aa27 9ebd 45a9 883c 3ff3 06be 78a1 d5bc
000003c0: df53 573d c56f 613d e186 89bd 823b cb3d
000003d0: 77d5 94bd e0d4 663d 728f 123e ba06 75bd
000003e0: 23b7 dabc 781f c0bd c696 b03b fb72 5e3c
000003f0: a773 44bd 6420 513d c534 f1bd 05b2 92bd
-0.13387126 0.09999872 -0.02134813 0.090876825 -0.14283259 -0.08540373 0.08415176 -0.0010441421
0.02213586 -0.059242945 -0.029823126 0.092081845 -0.06515332 0.029610794 0.03135488 0.08907636
-0.17991976 -0.015793715 0.04250261 -0.0046567563 -0.037728082 0.051668987 0.055735447 -0.009593308
-0.067043245 0.08237048 0.091943376 -0.13719104 -0.06533091 -0.0130068455 0.12009734 0.006329162
0.087052576 0.05842177 -0.057076897 0.08942415 0.060858328 -0.0700418 0.022709906 0.005678923
0.081531815 -0.056620333 0.00095965026 -0.023725444 0.05491184 0.10743472 0.048553366 0.05451
0.07255928 0.018509254 -0.012309059 -0.0018282341 -0.041438404 -0.042155225 0.098568924 -0.06077697
-0.1485323 0.09963261 0.092260316 -0.067969784 -0.13269128 -0.036518347 -0.112793915 0.050618682
-0.017513115 0.11545405 0.10739226 -0.087246165 0.02739833 -0.049860172 0.0072816922 -0.041781705
0.11911584 -0.073409304 -0.055892266 0.047663502 0.03673283 -0.119272426 0.03169821 0.091942236
0.032434594 0.071732916 0.09467107 -0.12621288 -0.004902301 -0.01616079 -0.03796239 -0.19875896
0.05362536 -0.05396449 0.07349841 0.066938095 -0.06756537 0.080127284 -0.09536411 -0.020951912
-0.026570242 -0.036004875 -0.022256253 -0.015005713 0.08557733 -0.09569349 -0.07640321 0.004586094
-0.1091278 -0.05127579 -0.043897156 0.08177361 0.07954825 0.070714235 0.10977468 -0.07814698
-0.09315177 0.032598358 -0.103161536 0.097517714 -0.1009816 0.0039802548 0.034620073 -0.08355943
0.09324704 -0.056658212 -0.0813394 0.08556107 -0.018351225 0.1010269 -0.11487231 -0.05175151
0.010143867 -0.06274962 -0.03223592 0.08050469 -0.12528612 0.07979324 0.11605526 0.031359814
-0.0074223215 0.1279256 0.07598053 0.042695343 -0.13152349 0.019676331 0.12263947 -0.09334542
-0.097083464 -0.0997048 0.0719997 0.062864065 -0.036253408 0.02617065 -0.06824978 0.06050192
-0.09480306 0.015736792 -0.09804592 -0.0036319627 0.06729532 0.14331403 -0.06767918 -0.072231606
0.008292658 0.016450547 0.10771652 0.011439383 -0.07759147 -0.08503541 0.08503726 0.11123744
0.023493623 0.13373825 0.09752777 -0.08007569 0.03928949 -0.11406684 -0.106619716 -0.08551475
0.0024496587 0.017159447 -0.08476477 -0.10077696 0.045790173 -0.08475716 -0.112272725 0.05524558
0.101314604 0.045318022 -0.04972855 0.08773447 -0.0768325 -0.0070104105 -0.0045116274 0.040346615
-0.057543106 -0.027025107 -0.09475321 0.078693286 0.03613749 0.03986187 -0.007292611 -0.0045016184
0.08931286 0.041692223 -0.037383005 -0.013297657 0.02531007 -0.056080792 0.0910494 -0.032137923
0.07016282 0.05537934 -0.055783723 0.10030517 0.08560399 0.073866785 0.008311307 0.08596867
0.040525895 0.033281133 -0.10561991 0.010250985 0.025881324 0.083620384 -0.03611592 -0.0861034
0.116216 0.04221868 -0.05431191 0.059590936 0.053015556 0.02812953 0.0355391 0.14244239
0.062829934 -0.087846704 -0.0782503 -0.102216154 -0.07722409 0.016682277 -0.13178729 -0.02607797
0.05257022 0.055038232 -0.06715179 0.099234596 -0.07267278 0.056355357 0.14312533 -0.059820868
-0.026698655 -0.09381002 0.0053890673 0.013577218 -0.047961857 0.05105628 -0.11777643 -0.07162861

bn1.weight f4 [64]
00000000: 0e37 853f 708d 773f 97c5 7d3f c568 783f
00000010: 99a0 803f 485c 7e3f b113 803f ab7b 7a3f
00000020: 7519 813f b744 793f e8f2 7d3f 8410 7e3f
00000030: e3f9 833f 3151 7b3f 16e6 7a3f bf97 7c3f
00000040: 1a66 7d3f 084a 763f 8632 803f 8c7f 843f
00000050: 9c2f 843f 17c7 7c3f 1855 843f 7cef 833f
00000060: 0c04 873f 019c 843f 6b12 843f d53c 813f
00000070: 81c3 763f 0c6a 843f dd86 803f e860 763f
00000080: 2f09 853f 4c3f 813f 281d 7e3f 5112 7c3f
00000090: 209c 7a3f 10dc 7f3f fcdc 773f 21c0 823f
000000a0: 6b43 813f 37e9 803f b7d6 783f 8904 853f
000000b0: a5a7 7b3f 4454 753f ba3b 7b3f e6c5 7a3f
000000c0: 9427 773f 41c5 813f fc73 753f 04a5 793f
000000d0: 82eb 843f a002 7f3f a665 823f 0ece 7e3f
000000e0: 1b79 803f 3b84 7c3f e835 763f 0300 773f
000000f0: 136d 773f d9b6 7d3f f64b 813f f5ed 7a3f
1.0407426 0.9670019 0.99129623 0.97034866 1.004901 0.9935956 1.0006009 0.9784495
1.0085894 0.97370476 0.9919877 0.9924395 1.0310634 0.98170763 0.98007333 0.98669046
0.9898392 0.9620671 1.0015419 1.0351424 1.0327029 0.98741287 1.0338469 1.030746
1.054811 1.0360109 1.0318121 1.009669 0.96392065 1.0344863 1.0041157 0.9624162
1.0393428 1.0097442 0.9926324 0.9846545 0.9789448 0.99945164 0.9682157 1.0214883
1.0098699 1.0071172 0.9720263 1.0392009 0.9830268 0.95831704 0.9813801 0.9795822
0.96544766 1.0138322 0.95880103 0.9751742 1.0384371 0.9961338 1.0187271 0.99533165
1.0036958 0.9863927 0.96176004 0.9648439 0.9665081 0.9910713 1.0101306 0.98019344

bn1.bias f4 [64]
00000000: 9bd8 efba fece b4bc 9f12 febb 8b7a 2cbd
00000010: a849 3bbd 3cc5 40bd 049e e43c efd9 2cbd
00000020: 788d 79bc fc6e ebbc 619e 52bc 8b78 f43c
00000030: e2ca ae3c 875c b2bc 315b 06bd 7522 b2bc
00000040: 709a a8bd 8150 293c a969 e8bc d733 583b
00000050: 55e9 693c a7bb 703c 0403 123d e753 393d
00000060: cc0c 813c b15e b33c a645 c6bc eb27 41bb
00000070: 95ea d9bc d247 253d b7a4 4bbd 4c02 d0bc
00000080: 8416 8a3d 7b8e 863c ff28 d83c 0a75 a8bd
00000090: 7edf b3bc 3780 503c 97ad 6dbd 525e 0ebc
000000a0: 0947 d4bc a9be 30bd cf6d 3b3c 8977 01bc
000000b0: c4a1 6abb 83a3 7cbd 068b 9d3c bc48 92ba
000000c0: b9b9 6ebd d971 b93b a990 0fbd b7c3 df3b
000000d0: 970e 6f3c b502 4abd 99b2 0dbd 2a29 0cbc
000000e0: 11e0 49bd 3be5 6bbc f96b d9bb e301 f7ba
000000f0: 1d32 16bc f268 9cbd 13e3 e5bb afca 3b3a
-0.0018298806 -0.022071358 -0.0077536847 -0.042109054 -0.04572454 -0.047063097 0.027907379 -0.042200025
-0.015231483 -0.028739445 -0.012855143 0.029842636 0.021336976 -0.021772636 -0.03280181 -0.021744946
-0.082325816 0.010334135 -0.028370695 0.0032989883 0.014276822 0.014693177 0.035647407 0.04524603
0.015753172 0.021895738 -0.024203133 -0.0029473256 -0.026601115 0.040351696 -0.04971763 -0.02539172
0.06742576 0.016425362 0.026386736 -0.082254484 -0.021957155 0.012725881 -0.058026876 -0.00868948
-0.025912778 -0.043150578 0.011439755 -0.007902035 -0.0035801986 -0.061679374 0.01923133 -0.0011160593
-0.058282588 0.0056593237 -0.035050068 0.006828751 0.014590881 -0.049318988 -0.034594152 -0.008554736
-0.049285952 -0.0143979145 -0.006635186 -0.0018845167 -0.009167221 -0.07637204 -0.0070155947 0.0007163686

bn1.running_mean f4 [64]
00000000: ac84 753e d8a5 123f 3e51 80be 71bc 373e
00000010: b92b 52bd 7e03 1fbe 1d66 383e 2d52 0abe
00000020: 412d 6b3d 3803 c73e 4883 a0be 5cd0 d8be
00000030: f8a3 72be 8f92 13bf ea87 1e3e 2bdd 983e
00000040: 57f4 72be 1439 063f fca3 bc3d c3c8 7ebe
00000050: 6f2a 983c ca2f a43e db4b a8bc 0134 8bbe
00000060: 2dcb 9d3b b489 7a3b c8cd 3cbd 4d62 a53e
00000070: 646d 993d ad48 4f3c a1ee 7ebe 9abb 823e
00000080: 4a3a 9bbd f38b 3d3e 40b2 b6be d501 97bd
00000090: dbfc 94be a613 69be 60df 3e3e f944 acbc
000000a0: 97af 283b a84d a1bd 832b 5e3e 811e 9c3d
000000b0: 20cf 043e 78a1 893d afea 85be 0dca a53d
000000c0: f83d f83e cee4 bbbd e6b2 8c3e 66bb 8dbd
000000d0: 2347 8abd fcdc 7cbe f348 463d c2a8 bd3e
000000e0: 9a5b a53e e57e efbd 9213 933d 6c8d f0bd
000000f0: dd7a 29be 9a1e c4be 6803 2bbc e082 bdbe
0.23976392 0.5728431 -0.25061983 0.17942978 -0.05131123 -0.15528676 0.18007703 -0.1350791
0.057416204 0.38869643 -0.3135016 -0.42346466 -0.23695362 -0.57645506 0.15481535 0.29856238
-0.23726021 0.52430844 0.09210965 -0.24881272 0.018574921 0.3206771 -0.020543983 -0.27188113
0.00481548 0.003822905 -0.046094686 0.3230156 0.07491568 0.012651605 -0.24895717 0.25533754
-0.07579477 0.18510418 -0.3568287 -0.07373396 -0.29099163 -0.22761402 0.18639898 -0.021028982
0.0025739425 -0.0787614 0.21696286 0.07623006 0.12969637 0.06720251 -0.26155612 0.08095179
0.48484778 -0.091745004 0.2748024 -0.06920509 -0.067518495 -0.24693674 0.048409414 0.37042814
0.3229645 -0.11694125 0.07181467 -0.11745724 -0.16550775 -0.38304597 -0.010437824 -0.37013912

bn1.running_var f4 [64]
00000000: b19a 173c 8728 883d b112 8f3c e483 b63c
00000010: 54cf ae3b e534 3c3c 8ef6 073c 1620 023d
00000020: d86c 033b 2ee5 f63c 7fba 2c3d 382e 873d
00000030: 8f18 7d3c 97fd 943d d793 603c c7db 3b3d
00000040: b84e 4f3d 9f35 b03d a292 3e3c 1e74 c63b
00000050: 6226 b03c afe2 103c 0920 493c c9a9 ca3b
00000060: 0efd 7b3b c12e d13b 41e1 603b 30ac c33c
00000070: 34cf ef3b b499 803b 472c a13c 13ad ef3c
00000080: 3182 873c 1ade d63b e01a 4e3d d84d ce3b
00000090: 6c0e 7f3b dc3e 0c3c 96e7 bc3c 0dd6 ea3b
000000a0: 8cc8 8b3c 36ac 643c 9fdb af3c 08a9 c03b
000000b0: fe67 293c e4f2 5e3b 6060 c13c 4308 8c3c
000000c0: 88a9 bc3d 7f24 903b ef59 243d 995e de3c
000000d0: 097f 2f3c b2d2 543c a29a c03b c385 783d
000000e0: 58de fa3c 4074 053d 641e 943c 200e f33b
000000f0: 901b 003c aac5 0c3d 717c bf3b dc42 073d
0.00925319 0.06648355 0.017464967 0.022279687 0.005334774 0.01148722 0.008298529 0.03176888
0.002005389 0.030138578 0.042170044 0.066006124 0.01544775 0.07274931 0.013707123 0.045863893
0.05061218 0.086039774 0.01163164 0.0060563227 0.021502677 0.008843108 0.012275704 0.0061847907
0.0038450393 0.0063837473 0.003431395 0.023885816 0.0073184017 0.003924573 0.019674433 0.029257333
0.016541572 0.0065572383 0.0503186 0.006295901 0.0038918508 0.008559909 0.023059648 0.00716663
0.017063402 0.013957074 0.021467028 0.005879525 0.010339735 0.0034019286 0.023605525 0.017093783
0.09212023 0.004398882 0.04012483 0.027144717 0.01071144 0.012989687 0.0058778087 0.06067444
0.0306236 0.032581568 0.018080898 0.0074174553 0.007819071 0.034368195 0.005843692 0.033022746

bn2.weight f4 [64]
00000000: 4764 853f b8ab 843f 87a4 853f 5f21 873f
00000010: 3430 943f 595e 883f 5d86 813f 8c45 883f
00000020: f4b8 893f dccf 853f 2a6d 8d3f 1bf9 8d3f
00000030: 160a 963f 2451 803f d1e2 853f c480 8e3f
00000040: cb8d 843f 99d8 8d3f 9f83 8a3f e751 883f
00000050: 35ff 933f d095 873f e834 893f f495 8b3f
00000060: dab3 8c3f a6f6 8d3f f7c8 8d3f fc39 893f
00000070: 983a 873f 6417 8b3f 7e33 983f 1078 913f
00000080: 3ac2 923f a315 933f 8b43 8f3f 0d2b 953f
00000090: 02c7 893f 4795 883f f95e 903f 21da 873f
000000a0: e76a 883f 3724 8c3f 7464 853f 872d 903f
000000b0: 092e 8a3f a815 813f 91cb 813f 2ad9 8a3f
000000c0: eb96 913f a87c 853f 95a3 993f 2fcb 8a3f
000000d0: 65f1 893f 01de 853f e29f 833f 1d92 8d3f
000000e0: 81b7 8c3f ca8a 893f c206 843f 642c 8e3f
000000f0: d748 8e3f 8633 903f 3e01 8f3f 826d 8e3f
1.0421227 1.0364904 1.0440835 1.0557059 1.157721 1.0653793 1.011913 1.0646224
1.0759568 1.0454059 1.1048939 1.1091646 1.1721828 1.0024762 1.0459844 1.1133046
1.0355772 1.1081725 1.0821418 1.0649995 1.1562258 1.0592594 1.0719271 1.0905137
1.0992386 1.1090896 1.1076955 1.072082 1.0564756 1.0866513 1.1890714 1.1364765
1.1465523 1.1490978 1.1192487 1.1653763 1.0763857 1.0670556 1.1278983 1.0613443
1.0657624 1.0948552 1.0421281 1.1263894 1.0795299 1.0084734 1.0140249 1.0847523
1.1374182 1.0428667 1.2003046 1.0843257 1.0776793 1.0458375 1.0283167 1.1060215
1.0993501 1.074548 1.0314562 1.1107297 1.1115979 1.1265724 1.1172254 1.1127169

bn2.bias f4 [64]
00000000: a5a7 b03c a9f3 0cb9 5a4d b93c 0808 3c3d
00000010: 1e89 3b3d 2393 de3c 1416 c2bc b31f 6e3c
00000020: 6532 5d3c 13eb 933a 17c5 ea3c 7d41 8c3c
00000030: ced2 6d3d 02a9 ddbc f503 2bbc d116 183d
00000040: bdc2 8a3c 1786 1e3c f72d 283c ac07 873c
00000050: 0937 0c3d 4d4a 90bb 1240 8d3c b031 373d
00000060: aab6 713c c391 a13c cdd4 0e3c 9608 003d
00000070: e2d9 90bb c732 c43c 73eb 943d d487 6a3d
00000080: 1aa9 b83c 50bf 933d a02c 933c 15f3 9c3d
00000090: 14da 43bc c5a9 533d 1ff7 bfba 5aa6 213c
000000a0: e71a 9fba e392 583c 8bf6 90bc bbaf 343d
000000b0: db7a f63c 7a79 e13a 5dcc a2bc b0b7 cd3c
000000c0: fa2c b23c 9245 6ebc aed4 883d e40b c43c
000000d0: 4362 2b3d 42ae 9ebc ec9e 883b 07b0 c93c
000000e0: 6e5b 9f3c 1fc0 413c a328 133b 7933 0e3d
000000f0: 017a db3c 02a9 4e3d 8308 f33c cfe8 b5bb
0.021564314 -0.00013442211 0.022619892 0.045906097 0.045785062 0.02716977 -0.023692168 0.014533925
0.0135007845 0.0011285268 0.028658433 0.017121071 0.058062367 -0.027058128 -0.010437955 0.037131134
0.016938562 0.009675524 0.010264865 0.01648315 0.034232173 -0.0044033886 0.017242465 0.04472512
0.014753023 0.019722825 0.008717728 0.03125819 -0.004420505 0.023949994 0.07271471 0.057258442
0.022541571 0.07214224 0.017965615 0.07663552 -0.011953849 0.051675577 -0.0014645791 0.009866321
-0.0012138755 0.013218614 -0.017695686 0.044112902 0.030087879 0.001720234 -0.019872839 0.025112003
0.021749962 -0.014542954 0.066811904 0.023931451 0.041841757 -0.019370202 0.0041693356 0.02462007
0.019452777 0.01182559 0.0022454641 0.034717057 0.026791574 0.050454147 0.029667145 -0.0055514346

bn2.running_mean f4 [64]
00000000: f84a a9bd 4823 5ebe 8fa2 133e fd4f 673e
00000010: 1213 25bd 7dc0 963d dba3 a5be d740 723e
00000020: 7a91 f63c e402 92b9 0bc0 31bf b623 883e
00000030: e70c e33d 62ff c9bd 0e1f 453e bdd9 0b3d
00000040: 213a 973e f553 aa3d 333b 2e3e f7cb 2cbf
00000050: 1c8e 22be e087 e6be 8010 1ebe d2f0 37be
00000060: 79da a13e 955b d7bd ba45 7e3e aed2 30bf
00000070: 2fd7 8fbe ea87 c13e f02f a1bd 0135 af3e
00000080: ed3b ca3d 32a7 82be ca09 8cbe 010a 49be
00000090: 6758 25bf 5dbf 243e 60f6 523e 0ced b33e
000000a0: 8fa2 23be 0598 f4bc 6b05 ecbd e89a 43bd
000000b0: 9eda 58be 542f c63e bd5f 5a3f 36b6 8e3d
000000c0: 86de 0abf 625d d0be 4247 62be 62f7 853b
000000d0: aa4e b83d 8787 f0bc feed 163f e1b0 24bd
000000e0: 408c 56bd 4bec 89be f967 8abe 9c7f d23d
000000f0: f735 41bd 7ae3 15be 6a6f b63e a102 dbbd
-0.08266252 -0.21693146 0.1441748 0.22589107 -0.04030139 0.07360933 -0.32351574 0.23657547
0.030098666 -0.00027849444 -0.6943366 0.26589745 0.11086445 -0.098631635 0.19250128 0.0341432
0.29536536 0.08316795 0.1701477 -0.67498726 -0.15874523 -0.4502554 -0.15435982 -0.1796296
0.31611994 -0.10515515 0.24831286 -0.6907147 -0.2809386 0.37799007 -0.078704715 0.34220126
0.09874711 -0.25518185 -0.27351218 -0.19632722 -0.64588016 0.16088624 0.20601797 0.3514179
-0.1597998 -0.029857645 -0.11524471 -0.047755152 -0.21177146 0.38707983 0.85302335 0.06968348
-0.54245794 -0.40696245 -0.22097495 0.004088328 0.08999379 -0.0293615 0.589569 -0.040207747
-0.052379847 -0.2693809 -0.2703245 0.10278246 -0.047170606 -0.14637557 0.35631877 -0.10693861

bn2.running_var f4 [64]
00000000: 7f16 053e 16ec 293e 19ba 073e 0f91 0e3e
00000010: 769f 493d 46b7 8d3d c701 b13d ec6f d83d
00000020: 6204 cf3d 3664 5b3e 082a 993d 14b2 f93d
00000030: 0fdb fe3c e6fe 183e fb38 f23d 4bd7 8f3d
00000040: 48cb 3b3e a21a 813d d353 113e 4a42 9d3d
00000050: 88b1 6e3d 0334 d03d daeb be3d 3291 c53d
00000060: 0d4f aa3d 8c18 f13d 6beb ad3d 356f ae3d
00000070: 72f8 bc3d 871d df3d 3305 5e3d dbdc a73d
00000080: 302b 393d b951 643d 2375 833d 4d0e 903d
00000090: 9c0b d33d 01a1 433e 678b 683d 4e48 e93d
000000a0: 1867 923d 116a ae3d d585 c33d 1aef 943d
000000b0: 9bb6 013e 09e1 6b3e 32b1 953e e7a9 db3d
000000c0: 088e a33d 01a3 973d f49b 013d e146 b13d
000000d0: 9874 1a3e bc6f ed3d 522c 003e 31de 993d
000000e0: 9268 343d 3d3f b03d ed1e ef3d 5dc1 703d
000000f0: 318b 853d e59c ab3d 24a7 983d 83ff a33d
0.12996863 0.16593966 0.13254584 0.13922523 0.04922434 0.06919722 0.08642917 0.105682224
0.10108258 0.21424946 0.0747872 0.12192169 0.031110315 0.14940986 0.118272744 0.07023486
0.18339264 0.06303908 0.14192133 0.07678659 0.058274776 0.101661704 0.09322329 0.096468344
0.08315859 0.1177226 0.08492168 0.08517305 0.09227075 0.10894304 0.054204177 0.08196422
0.045207202 0.055742 0.064188264 0.07033978 0.10304949 0.19104387 0.05677357 0.11390744
0.0714857 0.08516324 0.09547011 0.072721675 0.12667315 0.23035063 0.29236752 0.10725766
0.07986075 0.074041374 0.03164287 0.08656097 0.1508354 0.11593577 0.12516907 0.07513083
0.04404504 0.08605812 0.116758205 0.058778156 0.06520689 0.08379535 0.074537545 0.08007719

classifier.0.weight f4 [32, 64]
00000000: 77ef 433e 500d a03d 2a47 823d 153d d03d
00000010: d0b4 9fbc 6adb 2e3e 1de5 9b3b d645 89bd
00000020: 256b b53d 0457 06be a055 5a3c eb9e 453e
00000030: b550 5b3e 54ea b83b b884 57bd 6d6a 883c
00000040: 7b67 b33d 47dd 603e 1f4b 153d c74a 27bd
00000050: 9c9e 0bbe 76f5 eabd 4992 b7bc 5b2c 3b3e
00000060: 2c36 e13d 105a 21be dd0e b0bd c8c2 b13d
00000070: 5efb 8cbd 5d1e ea3a f231 8b3e c159 223e
00000080: d652 a93c c966 0a3d c1e2 01be 28d7 8e3e
00000090: 1a91 393d 5d39 c8bb 6d27 03be 20b5 cf3c
000000a0: 5339 f4bd 557b 14be 6b51 82bd e778 7ebd
000000b0: f686 e23c 738b ed3d 9aef 70bc fa43 383e
000000c0: 3b98 5dbe d807 c3bc f17d 7f3e 6c25 313c
000000d0: a791 48bd 0b33 d63d 0fe7 8f3c d02a 21bd
000000e0: 7f55 a9bc 9206 f33c 73fc 803c ce93 f2bd
000000f0: 8955 893d 2875 2a3e 9e41 f6bc e6c2 20be
00000100: a6ba 923d ad54 8d3d b182 6b3d 6bd4 81bd
00000110: 3bd0 453e c48f e4bd ba85 0bbe e225 bf3c
00000120: 812c 19be 205a c9bd 00b6 333e aad7 3fbd
00000130: 0636 85bd 6f4c 973c ea1b 0e3d e4bf 63bd
00000140: 6b3a e03d 433d f6bd 7084 dabc f267 d53d
00000150: e557 333e 7e6a 003c 03ad 8dbc 0bc6 14be
00000160: 594f 493d 17c7 3dbd 2db7 9b3d eb05 2d3e
00000170: 43f3 8b3d 8143 253d 089c 8e3d 3aa9 793d
00000180: 9f16 1f3c e956 2a3e 9005 2b3d 626f cebd
00000190: 3e8d 75bc f650 c73d 4958 363d 4ddc 803d
000001a0: 6f81 53bd d0ca de3c 9a74 abbd 9391 8b3b
000001b0: d626 4b3d 47ba cfbd 86cf 85bd 2cf9 803d
000001c0: f82b e4bd d674 a43d 930a 343e 3c58 803d
000001d0: de86 073e 9274 debd 5c76 b0bd 6298 3b3e
000001e0: fd6c 07be 9c41 a9bd dbdb c3bd a8c6 1ebb
000001f0: da5f 813d d171 cc3d e4e6 dabd 7b81 b73c
00000200: 2015 803c 2aa3 0c3e 155f 2e3d fcda 09be
00000210: dc85 2b3e e91b 1fbd 4047 ab3c 0b6b f63d
00000220: 3a3f 0b3e 40fb a93d 0a39 1dbd 87c4 cdbd
00000230: 9332 0cbe 31fd 743d a3ec 043d 0dc1 ba3d
00000240: 3b60 ac3d abd5 1c3b 6716 35be 06f6 663d
00000250: a314 313e 3366 8d3d 4ef0 cbbd c40f babc
00000260: ab89 8ebd 9b64 363e bf13 f5bc 1ff7 043e
00000270: d17a c7bc fc6f c03d 7bed 10be 30e7 1abe
00000280: cfd0 103e 40b3 083d 554b f5bb f5d7 59be
00000290: 4dd8 113e f92c 7a3c 3e4f 4dbc 52db 03bc
000002a0: 857b 923d e815 4d3e 5a85 9d3d b42e 743d
000002b0: d2d5 febc e4f8 8d3d 5870 42bd 4c0e 13bc
000002c0: ed3a 253e 4014 fbbc be46 4ebe 1107 a93d
000002d0: 8698 b7bc 5ff2 9dbd 7fde aebd f390 013d
000002e0: 46b9 a3bd bf27 84bd 8f52 0b3d 7034 da3d
000002f0: ae3d 6ebd c81c 1abd d861 d23d f1d8 f33d
00000300: c509 babd 1934 193e d6e7 043e 1e0b dfbd
00000310: 025c 363e 8588 a4bd a3ef 3ebd 025e 1f3e
00000320: 09e9 923c c2f7 943d 7e0d 0e3c ac1c 6ebc
00000330: bcf8 10be 5537 2bbd f603 b23b 5f0d 443d
00000340: 72a7 973d 6b6d 9fbd dac2 d0bd 70bc 143d
00000350: 3f8c aa3d 585f 273e d094 c9bd c9fa b8bc
00000360: 86a3 7dbc dd66 8a3d 0436 1d3e 84ab 943c
00000370: 15ed 2cbd cf8c d73c 35e3 12bd 8ccc b6bc
00000380: ba0b 933d c344 97bd 06b4 ab3d fb3a a5bd
00000390: 6f04 333e 8f6d 62bd aa5f b93d d3f5 2a3a
000003a0: a189 84bc 78ab 2b3e 6782 e8bd 908c 923d
000003b0: 177f 96bd 647c 373c 1d4f bfbd 3163 043d
000003c0: d487 113d d22b 48bd aaf1 30be 189c 293d
000003d0: 51af dcbd f787 163e da96 b3bc 3f2f 8dbd
000003e0: 2fb4 463d 75d8 0e3e a99b ed3d 7786 1bbc
000003f0: 1f92 ef3c 9016 fabd abdf 773d 2672 fb3d
0.19134317 0.07815039 0.0636123 0.101679005 -0.019495398 0.17075887 0.004757537 -0.06702773
0.08858327 -0.13119131 0.013326079 0.19298904 0.21417506 0.0056431685 -0.052616805 0.01665231
0.08759972 0.2195941 0.036448594 -0.040842798 -0.13634723 -0.11472599 -0.022408621 0.18278639
0.109966606 -0.15757012 -0.08596585 0.0867973 -0.06883882 0.0017861832 0.27186543 0.15854551
0.020669382 0.03378943 -0.12684156 0.27898526 0.045304395 -0.006110354 -0.12808008 0.025354922
-0.11924996 -0.14500172 -0.063631855 -0.06212702 0.027652245 0.115988635 -0.014705563 0.17994681
-0.21640103 -0.023807451 0.24950387 0.010812145 -0.04896703 0.104589544 0.017566232 -0.03934747
-0.02067065 0.029666219 0.015745377 -0.11844598 0.06705768 0.16646254 -0.030060586 -0.15699348
0.071645066 0.06900916 0.057497684 -0.06339344 0.19317715 -0.111602336 -0.13625231 0.023333494
-0.14958383 -0.09831643 0.17549896 -0.046836533 -0.06504445 0.018469064 0.03469459 -0.055602923
0.10948642 -0.120234035 -0.02667448 0.104202166 0.17513998 0.00783789 -0.017294412 -0.14528672
0.049147937 -0.046332445 0.076032974 0.16896789 0.06833508 0.04034758 0.06963354 0.060952403
0.009709983 0.16634716 0.04175335 -0.10079838 -0.014987288 0.09732239 0.04451779 0.06292019
-0.05163711 0.027196318 -0.08371849 0.004259297 0.049597584 -0.101429515 -0.065337226 0.06297526
-0.11141199 0.08030097 0.17582159 0.06266829 0.13235041 -0.10862078 -0.08616325 0.18319848
-0.1322517 -0.08264467 -0.095634185 -0.0024227295 0.0631711 0.09982646 -0.1068857 0.022400608
0.015635073 0.13734117 0.042571146 -0.13462442 0.16750282 -0.038844977 0.020907998 0.120321356
0.13598338 0.08299875 -0.038384475 -0.1004725 -0.13691168 0.059811775 0.032452237 0.09118853
0.08416792 0.0023931067 -0.17684327 0.05638697 0.17293029 0.069042586 -0.09957944 -0.022712596
-0.06959852 0.17811815 -0.029916642 0.12984894 -0.024350556 0.09396359 -0.14153092 -0.15127254
0.14142154 0.03337407 -0.007485787 -0.21273787 0.14242668 0.015269511 -0.0125311 -0.0080478955
0.07152466 0.20027888 0.076914504 0.059614852 -0.031107817 0.06932238 -0.04747042 -0.008975577
0.1613576 -0.030649304 -0.20144174 0.08253301 -0.022411596 -0.07712244 -0.085385315 0.031632375
-0.079943225 -0.064528935 0.03401428 0.10654533 -0.05816429 -0.037625104 0.102725685 0.11906613
-0.09083895 0.1496128 0.12979063 -0.10890792 0.17808536 -0.080338515 -0.046615254 0.15563205
0.017933385 0.072738186 0.008670209 -0.014533203 -0.14157385 -0.041800816 0.005432601 0.047864314
0.074049845 -0.07784542 -0.10193415 0.03631252 0.08327531 0.16344965 -0.09842837 -0.022580521
-0.015480882 0.06757901 0.15352637 0.018148191 -0.042218287 0.02631226 -0.035861213 -0.022314332
0.07179971 -0.07386162 0.08383946 -0.0806789 0.1748216 -0.055280264 0.090514496 0.0006521616
-0.016178908 0.16764629 -0.11352997 0.071557164 -0.07348459 0.011199091 -0.093412615 0.03232116
0.035529926 -0.048869915 -0.17279688 0.04140863 -0.107756265 0.14700304 -0.021922518 -0.06893777
0.04851168 0.1394976 0.116019554 -0.009492508 0.02924448 -0.12211335 0.06051604 0.122776315

classifier.0.bias f4 [32]
00000000: 3485 29bd 8d4f 54bd 54c7 c03d 881f a23d
00000010: 0a36 a1bd 98f7 8a3d 57cc f03d 6f8e b23d
00000020: 8203 db3c 459d 813d 254e d93d 6545 f0bd
00000030: 9461 d2bc 355f 3fbd 3076 d6bd e106 2cbd
00000040: cd05 b7bd c7c4 743d 7521 c7bd 1a2f b2bd
00000050: 8e20 c9bd 0b9f 92bd 0473 89bd b2e7 a03d
00000060: ed84 b63d 8f70 be3c 5ed7 f83c 8b6d 01bd
00000070: c2f9 cd3d e970 3c3d 71c8 cd3d ca36 cf3d
-0.041386798 -0.051833678 0.09413019 0.0791617 -0.07871635 0.06785506 0.11757725 0.08718573
0.026735071 0.06328825 0.10610608 -0.11731986 -0.025681295 -0.046721656 -0.10471761 -0.041998748
-0.08936653 0.059757974 -0.09723178 -0.0870039 -0.098206624 -0.07159241 -0.067113906 0.078566924
0.08912072 0.023247031 0.030376133 -0.03159861 0.10057403 0.046006117 0.10047997 0.10117872
